model/model.pth (torch, 17216 bytes, 4 tensors)

linear1.weight f4 [256, 11]
0	0x3de8d814	0.11369339
1	0xbe64a600	-0.22328949
2	0xbe5bad93	-0.21452932
3	0xbd6a6e78	-0.057234257
4	0xbcec72d4	-0.028863348
5	0xbb71670b	-0.00368351
6	0xbe4b7af1	-0.19871117
7	0xbe7949ee	-0.24344608
8	0xbe08dc5c	-0.1336531
9	0xbeb31a90	-0.34981203
10	0xbe8233e1	-0.25430205
11	0xbd29b5a0	-0.041432977
12	0xbd8df869	-0.06932146
13	0xbeaa1520	-0.33219242
14	0xbd323213	-0.043504786
15	0xbdfefd3b	-0.12450644
16	0xbe79d235	-0.24396594
17	0xbd51f693	-0.051260542
18	0xbdd2e27b	-0.10297104
19	0x3abf9b92	0.0014618507
20	0x3d2979fa	0.04137609
21	0x3d0afe5e	0.03393399
22	0xbe0f1840	-0.13974094
23	0xbe506dc9	-0.2035438
24	0xbe262f97	-0.16229092
25	0xbe9377d3	-0.28802356
26	0x3cb08e4a	0.021552224
27	0x3d178e7a	0.03700111
28	0xbe8a218d	-0.26978722
29	0xbd0d94ef	-0.034565862
30	0xbdf5c695	-0.12000767
31	0xbe40955c	-0.18806976
32	0xbe47a3d9	-0.19496097
33	0x3d3e54bf	0.04646754
34	0x3c5b0b14	0.01336934
35	0xbc1d0ce4	-0.009585593
36	0x3d23257f	0.03983068
37	0x3d86b218	0.065769374
38	0xbd1a7b50	-0.037715256
39	0xbe2aa736	-0.16665348
40	0xbe958fac	-0.29211175
41	0xbe290775	-0.16506751
42	0xbe85e67f	-0.26152417
43	0xbe2a731c	-0.16645473
44	0xbe8f4688	-0.279835
45	0x3d120c71	0.035656396
46	0xbc59b529	-0.013287821
47	0xbe8fb287	-0.28065893
48	0xbe57c910	-0.21072793
49	0xbdabdf89	-0.08392245
50	0xbdc35086	-0.09536843
51	0xbe838a12	-0.25691277
52	0xbc4eab14	-0.01261403
53	0x3cc6d74b	0.024272582
54	0x3d136b0c	0.03599076
55	0xbe8de460	-0.277133
56	0x3d620672	0.055181928
57	0xbd5208ab	-0.051277798
58	0xbe0b9823	-0.13632254
59	0xbd13778a	-0.036002673
60	0xbd5e17c4	-0.054221883
61	0xbd72435d	-0.059146274
62	0xbd898eab	-0.06716665
63	0xbe6c132d	-0.2305419
64	0xbd95995e	-0.07304643
65	0xbe302699	-0.17202224
66	0xbd06a58d	-0.032872725
67	0xbe99fd72	-0.30076176
68	0xbc1fb35d	-0.009747353
69	0xbdcb2731	-0.099195845
70	0xbe5d09c2	-0.21585754
71	0x3cc1e1f4	0.023667313
72	0xbd40d2c1	-0.04707599
73	0xbd021659	-0.031759594
74	0xbe028b9c	-0.12748569
75	0xbe459c0c	-0.19297808
76	0xbe9f200d	-0.3107914
77	0xbd2f12ec	-0.042742655
78	0xbe76eb9c	-0.24113315
79	0x3b9a080f	0.0047006677
80	0xbda5c218	-0.08093661
81	0xbd95e88c	-0.073197454
82	0xbeb7e6ef	-0.35918376
83	0xbdbf9f59	-0.09356565
84	0xbe439618	-0.19100225
85	0xbdd12bbc	-0.1021342
86	0x3bf64cdb	0.007516486
87	0x3ccdad1c	0.025106959
88	0x3cae7599	0.02129631
89	0xbe60953a	-0.21931925
90	0xbbdf299a	-0.006810379
91	0xbdc7176c	-0.09721264
92	0x3d282579	0.04105136
93	0xbe1bd974	-0.1521967
94	0xbe136edf	-0.14397763
95	0xbeae1825	-0.34002796
96	0xbe750e95	-0.23931344
97	0xbe0557a0	-0.13021708
98	0x3d1f071f	0.03882515
99	0x3df98e64	0.12185362
100	0xbde9b599	-0.1141159
101	0x3c570314	0.0131232925
102	0x3db3cacf	0.08778917
103	0xbd0fa93f	-0.035073515
104	0xbda5013c	-0.08056876
105	0xbce509cf	-0.027958779
106	0xbe516884	-0.20450026
107	0xbe76149a	-0.24031296
108	0xbe85b7d5	-0.26116815
109	0xbe67910b	-0.22613923
110	0xbe4c3c84	-0.1994496
111	0xbe55b7af	-0.20870851
112	0xbd6cc005	-0.05780031
113	0x3ca38d96	0.019964974
114	0xbde16d83	-0.11007216
115	0xbdec1f7e	-0.11529444
116	0x3bd751a9	0.006571014
117	0xbd58608f	-0.05282646
118	0xbdff3bde	-0.12462591
119	0xbd593300	-0.053027153
120	0xbe48fb12	-0.19627026
121	0xbe244d5f	-0.1604514
122	0x3ddcd24c	0.107822984
123	0x3d04ba95	0.0324045
124	0xbe1a766c	-0.15084237
125	0xbd49c26d	-0.049257684
126	0xbdabdc82	-0.08391668
127	0xbdb44240	-0.08801699
128	0xbe3ed9bf	-0.18637751
129	0xbe89a2bb	-0.26881966
130	0xbdd266d6	-0.10273521
131	0xbdb9abb1	-0.09065951
132	0x3d5cec76	0.053936444
133	0xbe899da2	-0.26878077
134	0xbc9b3f62	-0.018951122
135	0xbda01bc7	-0.07817798
136	0xbd4d7bbf	-0.05016684
137	0xbd129fbb	-0.035796862
138	0xbda0140d	-0.078163244
139	0xbe85a85c	-0.2610501
140	0xbded2e30	-0.11581075
141	0xbdee176e	-0.116255626
142	0xbde48d34	-0.11159745
143	0x3d0ab914	0.03386791
144	0xbe948af3	-0.2901226
145	0x3c4ec7bc	0.012620863
146	0x39ed5178	0.00045264862
147	0x3cf79ca9	0.030226069
148	0xbd9fc2f3	-0.078008555
149	0x3ac1fd8b	0.0014800293
150	0xbdc2cf19	-0.09512157
151	0xbdc0042e	-0.09375797
152	0xbe16a941	-0.14713003
153	0xbe0a28b1	-0.13492085
154	0x3c375bad	0.011191291
155	0xba022589	-0.00049646996
156	0xbe7c7101	-0.24652483
157	0xbdce8744	-0.100843936
158	0xbe0bcf86	-0.13653383
159	0xbdf4a85e	-0.11946176
160	0xbe4e3382	-0.20136836
161	0xbe923557	-0.2855632
162	0xbe963e0e	-0.2934422
163	0xbcf7bb9e	-0.03024083
164	0xbd381d7c	-0.044949993
165	0x3de8ea11	0.113727696
166	0xbde184ff	-0.11011695
167	0xbe9826b3	-0.29717025
168	0xbe1aada0	-0.15105295
169	0xbe4d5984	-0.20053679
170	0xbdda117a	-0.10647865
171	0xbe62b7f7	-0.2214049
172	0xbd510856	-0.05103334
173	0xbd34437e	-0.044009678
174	0xbe112664	-0.14174801
175	0xbc888370	-0.016664237
176	0xbdc6589f	-0.09684872
177	0xbe1b40a2	-0.15161374
178	0x3da437a1	0.08018423
179	0xbe5bef6b	-0.2147805
180	0xbe9f68af	-0.31134555
181	0xbeab3bed	-0.33444157
182	0xbe096ed1	-0.1342118
183	0xbda3db56	-0.080008194
184	0x3cbae3ba	0.022813667
185	0xbec8c136	-0.39209908
186	0xbe94ee3f	-0.29088017
187	0xbd0fb273	-0.03508229
188	0x3d65ea62	0.056131728
189	0xbe207483	-0.15669446
190	0xbe9239fd	-0.28559867
191	0xbd35bbbd	-0.044368494
192	0xbe52102b	-0.2051398
193	0xbde4327a	-0.1114244
194	0xbc384cd2	-0.011248784
195	0xbd44418d	-0.047914077
196	0xbe5f6e5b	-0.21819441
197	0xbe16d2ad	-0.14728804
198	0xbea76935	-0.32697454
199	0xbe2a47bc	-0.16628927
200	0xbd75f7f6	-0.060050927
201	0x3e67b9a0	0.22629404
202	0x3e345526	0.17610607
203	0xbe614bd2	-0.2200158
204	0xbdb318a4	-0.08744934
205	0xbe9e7471	-0.30948213
206	0xbe91f9bc	-0.28510845
207	0x3c1990e5	0.009372924
208	0x3cf5eac2	0.030019168
209	0x3d376b87	0.04478028
210	0xbe032f3b	-0.12810986
211	0x3d057a06	0.032587074
212	0x3d2169d7	0.039407577
213	0x3d559dd2	0.052152462
214	0x3cfc33b4	0.030786373
215	0x3e262b1f	0.16227387
216	0xbe9a9295	-0.30189958
217	0xbe912257	-0.28346512
218	0xbe9ad9b3	-0.30244216
219	0xbe84f8d1	-0.25971082
220	0x3dace113	0.08441367
221	0xbe56ac27	-0.20964108
222	0xbdb30fe8	-0.08743268
223	0xbdf3da83	-0.11906912
224	0xbceb57b5	-0.028728345
225	0xbd6e46db	-0.05817304
226	0xbe6077df	-0.21920727
227	0xbddf6f39	-0.10909886
228	0xbd92ebd8	-0.0717389
229	0xbe46d2fe	-0.19416425
230	0xbe33484a	-0.17508045
231	0xbe16b560	-0.14717627
232	0xbe3b27ad	-0.18276854
233	0x3d87b2c0	0.06625891
234	0xbda9b0c5	-0.08285669
235	0xbe9137f7	-0.2836301
236	0xbe656b07	-0.22404109
237	0xbe0cc873	-0.1374834
238	0xbd198c95	-0.037487585
239	0x3ca3131d	0.019906575
240	0xbc611a15	-0.013739129
241	0xbd5a483f	-0.053291555
242	0xbcd4e891	-0.025989803
243	0x3ca5afbd	0.0202254
244	0x3a9916f9	0.001167982
245	0xbe343686	-0.17598924
246	0x3bec6f1c	0.0072153937
247	0xbe715cd8	-0.23570573
248	0x3a571e32	0.00082060986
249	0xbeaa4057	-0.33252212
250	0xbe64d744	-0.22347742
251	0xbd92a659	-0.071606345
252	0xbda5a2ae	-0.08087669
253	0xbe041ddc	-0.12902015
254	0x3dc509e0	0.09621024
255	0x3da60f90	0.08108437

linear1.bias f4 [256]
0	0xbe3fb4c6	-0.18721303
1	0xbeac739b	-0.3368195
2	0xbee57bbb	-0.4482096
3	0xbeb0049d	-0.3437852
4	0xbe26f06f	-0.16302656
5	0xbecc5f9a	-0.39916688
6	0xbe456993	-0.19278555
7	0xbe05e6e6	-0.13076362
8	0xbf0d2ce5	-0.5514663
9	0xbf03a9ab	-0.5143077
10	0xbd05640c	-0.032566115
11	0xbf36d5a0	-0.71419716
12	0xbf15f1cf	-0.58572096
13	0xbf22dcb4	-0.63618016
14	0xbe4b92d8	-0.19880235
15	0xbe5c5669	-0.21517338
16	0xbf1e09af	-0.61733526
17	0xbee678ea	-0.45014125
18	0xbe957866	-0.2919342
19	0xbea4c6fa	-0.32183057
20	0xbef75627	-0.48307917
21	0xbefb99c0	-0.4914074
22	0xbefd08c3	-0.49420747
23	0xbf074a25	-0.5284751
24	0x3af92ac3	0.0019009936
25	0xbe37580e	-0.17904684
26	0xbef9e81e	-0.48809904
27	0xbe62a4c1	-0.22133161
28	0xbee4e01f	-0.4470224
29	0xbef8b24d	-0.48573533
30	0xbe28d73b	-0.16488354
31	0xbe68154d	-0.22664376
32	0xbe265c93	-0.16246252
33	0xbf134efb	-0.5754239
34	0xbe5cb653	-0.21553926
35	0xbe78ee32	-0.24309614
36	0xbed7f447	-0.42178556
37	0xbd219370	-0.039447248
38	0xbefd7186	-0.49500674
39	0xbec4b37b	-0.38418183
40	0xbedb0fc7	-0.42785475
41	0xbe848ea5	-0.2589008
42	0xbe51d6cc	-0.20492095
43	0xbf17aadb	-0.5924508
44	0xbf083e36	-0.53219926
45	0xbe8a5222	-0.27015787
46	0x3cbb0c71	0.022833081
47	0xbe445bd4	-0.19175655
48	0xbe93150e	-0.28727
49	0xbeb71c01	-0.35763553
50	0xbe657a8e	-0.22410032
51	0x3cdb52f0	0.026772946
52	0xbd64a489	-0.055820975
53	0xbedcc7f1	-0.43121293
54	0xbeca5d2e	-0.39524215
55	0xbe85e2ea	-0.26149684
56	0xbec252f3	-0.3795391
57	0xbe5319ca	-0.20615306
58	0xbe77348e	-0.24141142
59	0xbe8f7364	-0.28017724
60	0xbe036eb0	-0.12835193
61	0x3ca7196b	0.020397862
62	0xbf0b40ad	-0.5439556
63	0xbecbdcf8	-0.39817023
64	0xbeba71aa	-0.36414844
65	0xbe19f8e4	-0.1503635
66	0xbf033a49	-0.5126081
67	0xbed53f92	-0.41650063
68	0xbda626de	-0.08112882
69	0xbeb76a61	-0.35823348
70	0xbef903db	-0.48635754
71	0xbf0467b9	-0.5172077
72	0xbf2f975e	-0.68590343
73	0xbe98e315	-0.2986075
74	0xbca4ef79	-0.02013372
75	0xbe428bf1	-0.18998696
76	0xbe1cf89d	-0.15329213
77	0xbec0828a	-0.37599593
78	0xbd67d55a	-0.056599952
79	0xbce6e4da	-0.028185297
80	0xbceb1d16	-0.028700393
81	0xbef80aa0	-0.48445606
82	0xbbe5eee7	-0.007017005
83	0xbeaad14e	-0.33362812
84	0xbe3fc3b1	-0.18726994
85	0x3d575326	0.05256953
86	0xbd9b473c	-0.07581946
87	0xbed12dfa	-0.4085539
88	0xbd94af05	-0.07259945
89	0xbe9f9a5b	-0.3117245
90	0xbe6eef4e	-0.23333475
91	0xbee58f9d	-0.4483613
92	0x3da6355d	0.08115647
93	0xbf0158ee	-0.5052632
94	0xbea11a7a	-0.31465513
95	0xbe3dabd9	-0.18522586
96	0xbe490671	-0.19631363
97	0xbe81814d	-0.2529396
98	0xbe814626	-0.25248832
99	0xbed6032a	-0.4179929
100	0xbe7d2d39	-0.24724282
101	0xbf2c827a	-0.6738659
102	0xbef56534	-0.47928774
103	0xbe9825bc	-0.2971629
104	0xbeadc1b0	-0.33936834
105	0xbeaacad0	-0.3335786
106	0xbd623fb2	-0.055236526
107	0xbcea87f9	-0.02862929
108	0xbed3af3c	-0.4134463
109	0xbd998754	-0.07496515
110	0xbf032e23	-0.51242274
111	0xbf01e1e1	-0.5073529
112	0xbf0efe32	-0.5585662
113	0xbd242284	-0.04007198
114	0xbf0b9ec5	-0.5453914
115	0xbd2357a6	-0.03987851
116	0xbe0ad535	-0.13557895
117	0xbe5cd6fb	-0.21566384
118	0xbe3f9527	-0.18709241
119	0xbf20a14a	-0.6274611
120	0xbd0415d1	-0.03224737
121	0xbef2d54d	-0.4742836
122	0xbe968cde	-0.29404348
123	0xbee0045c	-0.43753326
124	0xbebe8898	-0.37213588
125	0x3d83726a	0.06418307
126	0xbe1a9cd9	-0.15098895
127	0xbf18493e	-0.5948676
128	0xbe055e92	-0.13024357
129	0x3ce43109	0.027855413
130	0xbf1014e9	-0.56281906
131	0xbef56d32	-0.47934872
132	0xbd4020ef	-0.046906408
133	0xbf32a173	-0.697776
134	0xbf3b37a6	-0.7313179
135	0xbec34acd	-0.38143006
136	0xbe9e1e67	-0.3088257
137	0xbe7b1bfe	-0.24522397
138	0xbecd05f5	-0.40043607
139	0xbeaa8f72	-0.33312565
140	0x3d3feffc	0.046859726
141	0xbda4152c	-0.08011851
142	0xbdf21bc5	-0.11821703
143	0x3b8c55d1	0.004282691
144	0xbe7d1f9b	-0.24719088
145	0xbd9fcc39	-0.07802624
146	0xbebe1b61	-0.37130263
147	0xbe919097	-0.28430626
148	0xbe79a925	-0.2438093
149	0xbee5ba82	-0.44868857
150	0xbed5ae32	-0.41734463
151	0x3d007ac3	0.031367075
152	0xbf114b1b	-0.56755227
153	0xbf4686d3	-0.77549475
154	0xbf0cfa34	-0.5506928
155	0xbe192df2	-0.14958933
156	0xbcb819b4	-0.022473194
157	0xbec9a5ab	-0.39384207
158	0xbee3deaa	-0.44505817
159	0xbe7cb096	-0.24676737
160	0xbca94b24	-0.020665713
161	0xbe808343	-0.25100145
162	0xbe092ce9	-0.13396038
163	0xbea4ac13	-0.32162532
164	0xbe8a154d	-0.26969376
165	0xbe1ce572	-0.15321901
166	0xbec0a55f	-0.37626168
167	0xbee5ea37	-0.44905254
168	0xbeec215c	-0.461192
169	0xbe1bd79b	-0.15218966
170	0xbe64661d	-0.22304578
171	0xbe089ba2	-0.13340619
172	0xbdd9ed65	-0.106409825
173	0x3d71e571	0.059056703
174	0xbdbcbf38	-0.092161596
175	0xbe6c6a94	-0.23087531
176	0xbeb58fcd	-0.35461274
177	0xbdaf1f12	-0.08550848
178	0xbef294b5	-0.4737908
179	0xbea8c2b1	-0.32961038
180	0xbf06f6c4	-0.52720284
181	0xbf2cc8c2	-0.6749383
182	0xbeb3773c	-0.35051906
183	0xbe806a24	-0.2508098
184	0xbecb4b79	-0.3970602
185	0xbed3c249	-0.41359165
186	0xbee134ef	-0.43985698
187	0xbeb9c163	-0.36280355
188	0xbdc6b7d7	-0.097030334
189	0xbe67194d	-0.22568245
190	0xbe7b3837	-0.24533163
191	0xbe0daf3f	-0.13836382
192	0xbe373db7	-0.17894636
193	0xbee899ba	-0.45429784
194	0xbe74be61	-0.23900749
195	0xbef53288	-0.47890115
196	0xbefa6ea4	-0.48912537
197	0xbd4e6e46	-0.050398134
198	0xbec591b0	-0.38587713
199	0xbe826aa1	-0.25471976
200	0xbe773239	-0.24140252
201	0x3d29c841	0.041450743
202	0xbecca7e9	-0.39971855
203	0x3d435647	0.047689702
204	0xbf1d0261	-0.61331755
205	0xbe89b584	-0.26896298
206	0xbe7302a6	-0.23731479
207	0xbf06f0e3	-0.52711314
208	0xbe6f6f62	-0.23382333
209	0xbe8159b9	-0.25263765
210	0xbdbb85e4	-0.09156397
211	0xbeed77a6	-0.46380347
212	0xbf09cf86	-0.5383228
213	0x3d23fdde	0.04003703
214	0xbec3ae13	-0.38218746
215	0xbed4784d	-0.41498032
216	0xbf0fcf43	-0.5617563
217	0xbea59edc	-0.32347763
218	0xbeeed75a	-0.46648675
219	0xbeb27540	-0.3485508
220	0xbe4eba55	-0.20188268
221	0x3e5ffafb	0.21873085
222	0xbe86c309	-0.26320675
223	0xbe82219e	-0.25416273
224	0xbe67972c	-0.22616261
225	0xbeac3cae	-0.33640045
226	0xbe5ca39c	-0.21546787
227	0xbf266d9e	-0.6501101
228	0xbe81eb89	-0.25375012
229	0xbe34ef8d	-0.17669506
230	0xbc5da7a0	-0.013528734
231	0xbf1c3126	-0.61012495
232	0xbe2b64d8	-0.16737688
233	0xbeb8e396	-0.36111134
234	0xbed70371	-0.41994813
235	0xbef6789f	-0.48138902
236	0xbef72d51	-0.4827676
237	0x3a2ee8e1	0.0006672275
238	0xbcd9bca4	-0.026579209
239	0xbe856329	-0.26052216
240	0xbf0bd2ea	-0.54618704
241	0xbd9b3f28	-0.075804055
242	0xbf1910cd	-0.5979126
243	0xbe19fc4a	-0.15037647
244	0xbf0e685f	-0.5562801
245	0xbee2b351	-0.44277433
246	0xbe9b778d	-0.30364648
247	0xbed7ab19	-0.42122725
248	0xbd803d57	-0.062617
249	0xbdab3ac6	-0.083608195
250	0x3e2b1c0c	0.16709918
251	0xbd6cb110	-0.057786047
252	0xbeb76ca5	-0.35825077
253	0xbf235f5f	-0.638174
254	0x3d737d6e	0.05944579
255	0xbde6b331	-0.11264647

linear2.weight f4 [3, 256]
0	0x3d82aabb	0.063802205
1	0xbc1dbf71	-0.009628163
2	0x3addc13d	0.0016918551
3	0xbc564066	-0.013076877
4	0xbbb2576b	-0.00544255
5	0x3b4dac6f	0.0031383296
6	0x3a557946	0.00081433763
7	0xbb8454da	-0.0040384354
8	0x3f4e563e	0.80600345
9	0xbcd8488b	-0.026401779
10	0xbbbc4e95	-0.0057466724
11	0xba80b4be	-0.000981949
12	0xbcb85989	-0.022503631
13	0xbce940e1	-0.02847332
14	0x3c294589	0.01033152
15	0x3d90375b	0.07041808
16	0xbe0cf20a	-0.13764206
17	0x3cdd8475	0.0270407
18	0xbe0dcdbd	-0.13848014
19	0x3ce14810	0.027500182
20	0xbc1b81c8	-0.0094913915
21	0x3c3c1c17	0.0114813065
22	0x3c80a8f8	0.01570557
23	0xbcf4927a	-0.029855002
24	0x3985778f	0.00025456815
25	0xbc30c760	-0.010789722
26	0xbd517e90	-0.05114609
27	0xbce96159	-0.028488802
28	0x3b297e1c	0.002586252
29	0xbb81ec01	-0.0039649014
30	0xbcd75373	-0.026284909
31	0x3c000b6f	0.007815226
32	0x3a924b73	0.0011161402
33	0x3c61f255	0.013790687
34	0x3b188286	0.0023271157
35	0xbd0caa87	-0.034342315
36	0xbcdd89f0	-0.027043313
37	0x3ccb0255	0.024781385
38	0xbd066443	-0.03281046
39	0xbcce19ce	-0.025158789
40	0x3edadccc	0.4274658
41	0x3b938e00	0.0045030117
42	0xbac46487	-0.0014983573
43	0xbd90a589	-0.07062823
44	0xbc91788f	-0.017757682
45	0xbce8a8e6	-0.02840085
46	0x3e3dda20	0.1854024
47	0x3d0278c2	0.031853445
48	0x3a0dfb46	0.0005416166
49	0xbdb9e1c1	-0.09076262
50	0x3c85da46	0.016339432
51	0x3e93e35f	0.28884408
52	0x3c2b21ea	0.010445097
53	0x3b698ddd	0.0035637536
54	0x3c1b866e	0.0094925
55	0xbd011ef2	-0.031523652
56	0x3e2dc253	0.1696866
57	0x3bece5c1	0.0072295372
58	0x3addc2a7	0.0016918973
59	0xbc5aec8c	-0.013362061
60	0x3ba53c22	0.005042569
61	0xbafd7a27	-0.0019338772
62	0x3cff2808	0.031147018
63	0x3cc84977	0.024449093
64	0x3cd81efe	0.026381966
65	0x3cba24db	0.022722652
66	0xbb48c700	-0.0030636191
67	0xbca1cbcf	-0.019750504
68	0x3c3f33c0	0.011670053
69	0x3ac21cc0	0.0014809594
70	0xbb806857	-0.0039186883
71	0xbd8ab2e2	-0.067724004
72	0xbcb6699f	-0.022267161
73	0xbbc137dc	-0.0058965515
74	0xb9af953c	-0.0003348979
75	0xb9bdbb3d	-0.00036188393
76	0x3bb5a242	0.0055430243
77	0x3da9af09	0.082853384
78	0x3cf5be01	0.029997827
79	0xbc2cfcd1	-0.010558323
80	0xbd816824	-0.063186914
81	0x3c637077	0.013881794
82	0xbc6d5abe	-0.014486967
83	0x3e969311	0.29409078
84	0xbcae8766	-0.021304797
85	0x3ec3b04a	0.38220435
86	0x3c8f4ec2	0.01749361
87	0xbbbf6f70	-0.005842142
88	0x3b1f76b4	0.0024332227
89	0xbb955d79	-0.004558262
90	0x3b3b2292	0.002855454
91	0xbe91359e	-0.2836122
92	0x3c879369	0.016549783
93	0xbd92516f	-0.071444385
94	0xbd03b288	-0.032152683
95	0xbc0b64d9	-0.008507931
96	0x3e347b79	0.17625226
97	0xbaa41794	-0.0012519234
98	0xba643411	-0.0008705268
99	0x3d9f820c	0.07788476
100	0xbc098111	-0.008392588
101	0xbc928fe2	-0.017890874
102	0x39dfc1fd	0.00042678407
103	0x3dbefd39	0.09325642
104	0xbd049ec2	-0.032377966
105	0xbd88b632	-0.06675376
106	0x3c815fcd	0.015792752
107	0xbd5cf083	-0.053940307
108	0x3ce72602	0.028216366
109	0x3e7ed00e	0.24884054
110	0x3e5857a7	0.21127187
111	0xbd22ea34	-0.039774135
112	0xbc891a6c	-0.016736232
113	0x3cd5aa2f	0.026082126
114	0xbbff8618	-0.0077979676
115	0x3b8f587a	0.004374561
116	0xbb6d3172	-0.0036192802
117	0xbb10ea63	-0.0022112362
118	0xb7bda03d	-2.2605172e-05
119	0x3d04e013	0.032440256
120	0xbc7c3a3f	-0.015394746
121	0x3c116457	0.008874021
122	0xbe8dd280	-0.2769966
123	0x3dd929c4	0.10603669
124	0x3b2325ef	0.0024894436
125	0x3c12db11	0.008963362
126	0xbd2ad4b5	-0.04170676
127	0xbd311b9d	-0.043239225
128	0xbba84b68	-0.0051359423
129	0xbcba9f5f	-0.022781072
130	0xbb46f080	-0.0030355752
131	0xbc18f9b5	-0.009336879
132	0xbce1bb0a	-0.027555007
133	0x3cc3c3f2	0.023897145
134	0xbca98b71	-0.020696374
135	0x3c6591b5	0.01401179
136	0xbba93a00	-0.005164385
137	0xb5fb0f8f	-1.8705485e-06
138	0xbd9ac95f	-0.0755794
139	0xbd460bfc	-0.048351273
140	0xbc2f4f78	-0.010700099
141	0x3e8566f5	0.26055112
142	0xbc7e1573	-0.015508044
143	0xbb5c8104	-0.0033646235
144	0xbc5ed60e	-0.013600839
145	0xbce4eab3	-0.027943945
146	0x3d659b8c	0.056056544
147	0x3c77d6df	0.015126913
148	0x3dfff863	0.12498548
149	0x3e542577	0.20717417
150	0x3b918618	0.004441034
151	0xbd4bc0b4	-0.049744323
152	0x387ae47a	5.981743e-05
153	0xbcebba16	-0.028775256
154	0xbd6aac73	-0.057293367
155	0xbd888f75	-0.06667987
156	0x3c2c1eee	0.010505421
157	0x3ca00bdb	0.019536903
158	0x3b483126	0.0030546873
159	0xba968c62	-0.0011485929
160	0x3e1cb776	0.1530436
161	0x3c65ca72	0.0140253175
162	0xbb7e0dea	-0.0038765618
163	0x3c85e253	0.016343271
164	0xbba76061	-0.005107925
165	0xbb9f0924	-0.0048533846
166	0x3c8dcabe	0.01730859
167	0xbc4a33f6	-0.01234149
168	0xbd0401a8	-0.032228142
169	0xbd6f259a	-0.05838547
170	0xbd32f6c9	-0.043692384
171	0x3bf0e63f	0.007351666
172	0x3d00f4c8	0.03148344
173	0x3d837f79	0.06420798
174	0x3e72c2a9	0.2370707
175	0xba4a0b99	-0.00077074167
176	0x3cd3494d	0.025791788
177	0x3b58dc77	0.0033090392
178	0xbb530730	-0.003220033
179	0x3d5350e7	0.051590826
180	0xbc90d30b	-0.017678758
181	0xbcdfae6b	-0.027304849
182	0xbca09676	-0.019602995
183	0x3d0c0f82	0.034194477
184	0x3d88229c	0.06647226
185	0xbbbffbe3	-0.0058588847
186	0xbc453d84	-0.012038592
187	0xbd46b338	-0.04851076
188	0xbc12244a	-0.008919785
189	0x3ec5f179	0.38660792
190	0xbe16c614	-0.14723998
191	0x3d97d875	0.07414333
192	0x3e429bbd	0.19004722
193	0x3c183ebe	0.009292303
194	0xb916c8a5	-0.0001437986
195	0x3be27a06	0.006911519
196	0x3c23dd92	0.010001557
197	0xbb0737e8	-0.0020632688
198	0xbc5f40af	-0.013626262
199	0x3c8eee1c	0.017447524
200	0xb92a125c	-0.00016219303
201	0x3c080eb8	0.0083042905
202	0x3cb3e469	0.0219595
203	0xbbf77b41	-0.007552535
204	0xbdc15fe8	-0.09442121
205	0xbe5be9d5	-0.21475919
206	0x3ca1ac41	0.019735457
207	0x3c2cd6df	0.010549276
208	0xba1a6cac	-0.0005890827
209	0xbbb0a5d1	-0.0053908606
210	0xbd97301c	-0.07382223
211	0xbc039234	-0.008030463
212	0x3c676131	0.014122293
213	0xbc9a3d07	-0.018827928
214	0x3cabbbc9	0.020963566
215	0xbc2dfd3a	-0.010619456
216	0x3c98e5df	0.018664299
217	0x3c8c38f3	0.017117
218	0x3aaf8b9d	0.0013393048
219	0x3d082231	0.033235732
220	0xbbad95e8	-0.0052974112
221	0xbd336c28	-0.043804318
222	0x3d455c26	0.048183583
223	0x3d12f71d	0.035880197
224	0x3a97618f	0.001154946
225	0x3b3f4b7e	0.0029189284
226	0x3d3b5eae	0.04574459
227	0xbd236b20	-0.039897084
228	0xbc5e8c12	-0.0135832
229	0x3c29dbe5	0.010367368
230	0x3aa4114f	0.0012517365
231	0x3caa3692	0.020777974
232	0x3ea7df56	0.3278758
233	0x3e1d1cfd	0.1534309
234	0x36064fbe	2.0013972e-06
235	0x3ea30309	0.31838253
236	0x3ceee2f1	0.029160948
237	0x3939e93d	0.00017729863
238	0x3a037c5c	0.00050157844
239	0xbc6a71a7	-0.014309323
240	0x3bb8053e	0.0056158593
241	0xbcab1a18	-0.020886466
242	0xbc605a5b	-0.013693417
243	0xbd1070d2	-0.035263844
244	0x3a4580f6	0.000753417
245	0x3b7bb51d	0.0038407512
246	0x3b2511f9	0.0025187714
247	0x3cbd4786	0.023105394
248	0xbccb41e2	-0.024811689
249	0xbd5c2a85	-0.053751487
250	0x3e333abf	0.17502879
251	0xbab963b2	-0.0014144091
252	0xbbe63cda	-0.007026297
253	0x3c3030fd	0.010753867
254	0xbda5a9b7	-0.08089011
255	0xbd060d05	-0.03272726

linear2.bias f4 [3]
0	0x3f22df5f	0.6362209
1	0xbf214784	-0.6299975
2	0xbedb9cb1	-0.42892984
